gnn_model.pth (torch, 2155 bytes, 4 tensors)

conv1.bias f4 [16]
000000 33 61 a3 bd 9f af da bd 00 00 00 00 19 ad 12 be
       -0.07977524 -0.10678028 0.0 -0.14323844
000010 01 7b 48 bd 2a a0 c2 bd 00 00 00 00 14 98 71 bd
       -0.04894543 -0.09503205 0.0 -0.058982924
000020 1b 0d cb bd f3 b6 21 be 26 d0 b2 b9 00 00 00 00
       -0.09914609 -0.15792446 -0.00034105888 0.0
000030 05 82 57 be 77 3c 8e bd ae 4b c7 bd 00 00 00 00
       -0.21045692 -0.069451265 -0.09731232 0.0

conv1.lin.weight f4 [16, 3]
000000 3d d2 f2 3e c7 be e1 3d 31 0e be bd 23 3f b0 3d
       0.47426024 0.11022716 -0.092800505 0.086057924
000010 80 a2 5b 3e 3e e2 5b be c7 84 a4 be 75 ec ea be
       0.21448708 -0.21473023 -0.3213255 -0.45883527
000020 f8 1f b6 3d 14 3b 89 bb 0d b7 8d bd bc c3 f9 3d
       0.08892816 -0.004187951 -0.0691968 0.121955365
000030 36 93 9c be 71 aa 73 3e 08 6a ed be 0b 98 e7 3e
       -0.30581063 0.23795487 -0.46369958 0.45233187
000040 fe c5 13 bf 88 87 cd 3e 00 e0 8d 38 74 dc e6 be
       -0.5772399 0.40142465 6.765127e-05 -0.45090067
000050 50 4e 1f 3d 37 41 cb 3e 50 51 9d 3d b3 a8 d6 be
       0.038893044 0.39698192 0.07681525 -0.41925582
000060 4e fa b9 3e 96 c6 1a bc e7 be 23 be db fc ab 3e
       0.3632378 -0.009446761 -0.15990792 0.3359135
000070 aa f6 af 3e 58 15 17 bf e1 53 04 bf 27 32 92 3d
       0.34367877 -0.5901694 -0.5169049 0.07138472
000080 47 a7 5a 3e dc b7 d3 be 00 d3 86 3d 01 a7 af be
       0.21352874 -0.4135121 0.06583214 -0.343071
000090 8b 85 a2 3e 02 12 77 3e 1f 7b 9d be 60 14 ed bc
       0.3174251 0.24127963 -0.30757996 -0.02894038
0000a0 6a be 31 bf e3 af a3 3e 6c 0a 5c 3e 6f 69 44 be
       -0.69431174 0.31970128 0.2148835 -0.19180845
0000b0 aa fc 97 bc 34 cc b2 bd 00 da 75 3c 6a 08 d7 be
       -0.018553097 -0.08730355 0.0150055885 -0.41998607

conv2.bias f4 [2]
000000 63 0e 5f 3e 5f de 30 3b
       0.21782832 0.0026988012

conv2.lin.weight f4 [2, 16]
000000 e8 57 e4 bd 7e 07 cc 3e 70 47 b5 3d ce c6 8d be
       -0.11149579 0.39849466 0.08851516 -0.27690738
000010 58 01 0c 3b c4 83 f9 be 00 f2 50 3c 79 a3 b5 3e
       0.0021363106 -0.48733342 0.01275301 0.35476282
000020 b3 e7 c8 3e 41 73 d3 3e 91 f1 26 3d 62 75 0e 3f
       0.39239272 0.4129887 0.04075772 0.5564786
000030 5b 75 21 3e 05 5f 00 bf 9c 79 bd be 3c 83 d5 3e
       0.15767424 -0.5014499 -0.37006843 0.41701686
000040 f3 63 40 3e aa e4 9b 3e 04 39 07 3f 74 b9 f6 3e
       0.18788128 0.30447894 0.52821374 0.48188365
000050 cb 7e e3 3e 01 03 50 3c 34 cb 4c 3e 83 03 90 3e
       0.44432673 0.012696029 0.19999391 0.2812768
000060 55 df 6d 3e 60 74 9e be 5b e7 01 bf d0 51 5d 3d
       0.23229726 -0.30948162 -0.50743645 0.0540331
000070 a7 b1 73 3d 55 74 bd 3e 7e e7 04 3e b0 c3 92 bd
       0.059495594 0.37002817 0.12978932 -0.07166231
