gnn_model.onnx (onnx, 19248 bytes, 4 tensors)

conv1.bias f4 [16]
00000000: 0000 0000 0000 0000 52ca 45be a62b 12be
00000010: 0000 0000 b0bb 53bd 725e 373c 2a62 c4bd
00000020: e4a5 2abd 4f43 55bd d8a2 94bd ddd7 2ebe
00000030: afa5 bf3d 0f25 33be 3cc2 88bd b9bf 8dbd
0.0 0.0 -0.1931546 -0.14274463 0.0 -0.051692665 0.011191951 -0.09589036
-0.041662112 -0.052066144 -0.072576225 -0.17074533 0.093577735 -0.17494605 -0.06677672 -0.06921334

conv2.bias f4 [2]
00000000: 0804 7b3d 8ab6 36bb
0.06128314 -0.0027879798

onnx::MatMul_184 f4 [3, 16]
00000000: 2632 c4be 4811 64be 8b50 bc3d c738 b03e
00000010: d461 62be 3737 33bf da07 f43e 93df ef3d
00000020: 57c0 a8be fbb9 8c3e 0124 973e 67be 9e3e
00000030: 817e 673e 125a ec3e 1032 f1bd 963c 73be
00000040: 49d7 09bf da37 7cbe 80ce 5d3e ca25 95bd
00000050: fe27 a4be 8225 b2bc d3e3 303f 44b3 59be
00000060: e34d c93e 0de0 323e 9d86 d73e 03ef b7bd
00000070: 6cb7 5c3e e42b e23c 599c 493e a4eb f63e
00000080: 5e66 893e a216 4dbe e700 a03e 5fae 8f3e
00000090: 64c8 aabd dd36 d43e ac26 8c3d 1615 1fbe
000000a0: 977e c03e b677 c53d 935d 19be cad0 e7bd
000000b0: 7b20 3bbf aada 6c3e 5244 873e 716e 05bf
-0.3831951 -0.22272217 0.0919505 0.34418318 -0.22107631 -0.70006126 0.4766224 0.11712565
-0.32959244 0.27485642 0.29519656 0.3100464 0.22606851 0.46162468 -0.11777127 -0.2375358
-0.53844124 -0.2463068 0.21660805 -0.07282598 -0.32061762 -0.0217464 0.6909763 -0.2125979
0.39317235 0.17468281 0.4209489 -0.08981135 0.21554345 0.02760882 0.19688548 0.48226655
0.26835912 -0.20028165 0.31250688 0.28062722 -0.08339003 0.41448107 0.068433136 -0.15535387
0.3759658 0.09641974 -0.14977102 -0.1131912 -0.73096436 0.23130289 0.26419312 -0.52121645

onnx::MatMul_187 f4 [16, 2]
00000000: 62a8 b9be d6eb e1be e6a7 913e 84d7 bb3e
00000010: d0f4 763e 7e99 873e 21a0 343e 06c7 6c3e
00000020: 08e0 06bf 45b1 dfbe eeea 0cbe 0a8c 38bf
00000030: a252 b43e 318c ef3e 39e4 983e 4c0b dc3e
00000040: 608c fabd 316c 82be 5c3d 163e e6fc a23e
00000050: 5698 84be 36b7 d1bd 7a1c 31bd c980 afbe
00000060: 490a 1ebd 600d 62bf f77b 6fbe 40b8 173d
00000070: 270e fe3d b7ad cb3e fc03 503e 514a 17bf
-0.36261278 -0.4412524 0.2844841 0.36687863 0.24116826 0.26484293 0.1763921 0.23122796
-0.52685595 -0.43689933 -0.13761494 -0.7208868 0.35219294 0.46786645 0.2986162 0.4297737
-0.12233806 -0.25473168 0.14671844 0.3183357 -0.25897473 -0.10240023 -0.043240048 -0.34277943
-0.038584027 -0.8830166 -0.23387133 0.03704095 0.12405043 0.3978097 0.2031402 -0.5909777
